model_zoo/team11_efdn.pth (torch, 883245 bytes, 538 tensors)

head.pw.weight f4 [45, 12, 1, 1]
000000 35 e7 58 3e a6 67 3e 3e 30 6f 65 bd 45 3a 83 3e
       0.21181948 0.18594226 -0.05601424 0.25630394
000010 87 75 ef bd 94 18 8f 3d 3b 03 19 be 0a 4c ed 3d
       -0.116923384 0.0698711 -0.14942639 0.11586769
000020 d0 3e 88 3e a6 f5 61 be 23 fd 49 3e a4 72 86 3d
       0.26610422 -0.22066364 0.1972547 0.06564835
000030 13 af 74 3e 83 b1 9e 3c 37 92 fe 3d 44 e5 76 bc
       0.2389491 0.019371754 0.12430232 -0.01506931
000040 58 ad 4f 3e d2 82 e3 3c 81 63 df bd 27 99 5c 3d
       0.20280969 0.02777234 -0.10907651 0.053856995
000050 64 71 17 be 63 c2 05 bc 1a 43 0c be c1 d8 34 3e
       -0.14789349 -0.008164021 -0.13697472 0.1766081
000060 7e f8 5d be fe 41 2d bd 2a a8 bf bd 77 5e 26 be
       -0.21676823 -0.042299263 -0.093582466 -0.16246973
000070 61 bb f1 3d f6 28 98 be c8 28 8b 3e 03 25 1e be
       0.11803318 -0.2971875 0.2717955 -0.15443806
000080 fd dd 57 3e 67 3c 72 3d 97 4f 41 bb 37 52 2a 3e
       0.21080776 0.059139635 -0.0029496902 0.16632925
000090 ec 17 97 3d f1 14 9c 3d eb af 40 3c 33 01 7f bd
       0.073776096 0.07621182 0.011760692 -0.062257003
0000a0 a6 be a2 bd 6b df c8 bd 35 e3 19 3e 4b 40 ce 3d
       -0.079465196 -0.098082386 0.15028079 0.10070857
0000b0 51 9a 16 3e cf 82 c7 bd 19 98 1d 3c c3 7a 02 3d
       0.14707305 -0.09741747 0.009618782 0.031855356
0000c0 92 6e 26 3e 7b af 5b be bd 09 ad be 99 cc c3 bd
       0.16253117 -0.21453659 -0.33796492 -0.09560508
0000d0 12 20 85 be 79 21 3d 3e f6 e7 ca 3d 74 d9 a5 3d
       -0.2600103 0.184698 0.09907524 0.080981165
0000e0 8b 30 20 3d 64 a8 32 3c 2c d4 3f 3e 8d bd 83 be
       0.039108794 0.010904405 0.18733281 -0.25730553
0000f0 3d b8 75 bc c0 4b 55 be b5 bd 8a 3d 8a c4 07 be
       -0.014997539 -0.20829678 0.06774465 -0.13258567
000100 fe 0f 9e 3d 84 bb a6 bd 92 33 53 3e 6b bd 3a be
       0.07717894 -0.081412345 0.20625141 -0.1823632
000110 b4 13 46 be f1 46 52 be 0b 58 7e 3e bf 76 99 3d
       -0.19343454 -0.20534874 0.24838273 0.07493352
000120 1e 17 d6 3e a1 ac ae be f1 eb 49 be 64 0e af bd
       0.41814512 -0.3411608 -0.19718911 -0.08547667
000130 44 1f 98 be 8c 02 53 3e 2a 9c 79 3e d1 37 0c 3e
       -0.29711354 0.2060644 0.24375978 0.13693167
000140 d1 84 75 bd d1 1e 67 bd 2e c1 4d 3d 72 a3 e1 bc
       -0.059941117 -0.056425873 0.05023306 -0.027543757
000150 cc bd 7c 3e db be 3f be 4b 01 5d 3e 76 57 1c be
       0.24681777 -0.1872515 0.21582524 -0.15267739
000160 65 63 87 be 07 09 0e 3e b0 d2 07 3e fe f6 44 be
       -0.2644302 0.13870631 0.13263965 -0.19234845
000170 47 1b 64 3e ff 23 89 3e 15 fc a7 be 71 cd d3 bd
       0.2227603 0.26785275 -0.3280951 -0.10341919
000180 63 1b 9d 3e 1b f0 9d 3d ed c6 af bd bd 7e 72 be
       0.30684957 0.07711812 -0.08582864 -0.2368116
000190 58 dc 16 3c 65 80 b5 3d 94 42 90 3b 03 73 0f bd
       0.0092078075 0.0886238 0.004402468 -0.035021793
0001a0 95 c2 be 3c 5d 65 1e be f3 27 90 bd 6a dc 11 be
       0.023286143 -0.15468355 -0.0703887 -0.14244238
0001b0 88 a3 5d be 82 5f 10 be 5e 47 89 3e 28 ce b9 3d
       -0.21644413 -0.14098933 0.2681226 0.09072524
0001c0 bc f1 06 3e 53 51 94 be 2c 11 1d be 31 26 5a bd
       0.13178152 -0.28968295 -0.15338582 -0.05325908
0001d0 6c 5d ca 3c 9d 07 5f be 00 07 a7 bd ea e7 45 be
       0.02470275 -0.21780248 -0.08155632 -0.1932675
0001e0 a1 5f 01 3d 08 8c 1b bd c0 6a 9f 3b b9 c8 28 be
       0.03158534 -0.03797534 0.0048650205 -0.1648282
0001f0 64 c9 03 be 5f fd 12 be 78 52 8b bd 30 33 22 be
       -0.12869793 -0.14354466 -0.06802839 -0.15839839
000200 cf aa 88 3e e4 20 d9 bc bb b9 a2 3e ef 1f eb 3d
       0.26692817 -0.026504941 0.31782326 0.114807
000210 20 e8 58 be 8a c2 19 3e af 7e 36 3d df c8 9f bd
       -0.21182299 0.15015617 0.04455441 -0.07801985
000220 44 18 94 be a6 e9 26 be d8 fb eb 3d 1d c7 e6 bd
       -0.28924763 -0.16300067 0.11522645 -0.112684466
000230 88 0c 72 3e d3 2d 51 be 30 a8 28 3e 83 0f b4 bd
       0.23637593 -0.20427637 0.16470408 -0.08792021
000240 aa e7 82 bd 23 ee 87 3d 51 b0 d9 3d 3b 3c 60 3e
       -0.06391843 0.06637218 0.10629333 0.21897976
000250 f5 c2 89 3e 6e 11 8b be 7b f6 6f 3d a1 d9 f1 bd
       0.26906553 -0.27161735 0.05858467 -0.118090875
000260 7e 4e 98 bd 75 a9 6b be 33 bf 89 3e 32 5a 82 be
       -0.07436846 -0.23013861 0.26903686 -0.2545944
000270 cc 86 14 3e 41 10 f2 3d a9 bb 59 3b 6a 46 29 be
       0.14504546 0.118195064 0.0033223426 -0.16530767
000280 db e9 8e 3e df 95 dd bc 12 8e e4 3c b7 59 73 be
       0.27912793 -0.027049003 0.027899776 -0.23764692
000290 48 75 fb 3c 7a 36 57 bd 3a 8b ec bd be 42 21 3e
       0.030695572 -0.052542187 -0.11549993 0.15748116
0002a0 7e 85 99 3d 3a c6 54 be 12 dd 9d bb e0 be 50 bb
       0.07496165 -0.20778742 -0.0048176134 -0.0031852052
0002b0 1c ac e7 3d 59 4d 8a 3d 77 ce 1d be cc 72 16 be
       0.11312124 0.06753034 -0.15410791 -0.14692229
0002c0 53 4e 98 bd 66 8f e8 3d 44 95 33 3e 4a 9c 05 be
       -0.07436814 0.11355476 0.17537409 -0.13047901
0002d0 e5 75 a0 3d 87 23 d6 3d 95 7c bd 3b 0c 64 bb bd
       0.078349866 0.10455995 0.0057826736 -0.09149942
0002e0 1c 4d d9 3d b1 52 d7 3d 3f 37 f4 3d b1 29 c3 bd
       0.106104106 0.10513819 0.119246 -0.095294364
0002f0 f1 eb fb bd 53 c9 2c 3d 9c b6 c3 bd f6 c4 07 be
       -0.123008616 0.042184185 -0.09556314 -0.13258728
000300 46 8e 69 3e 84 fa 27 3e 5b 15 cb 3c d2 85 ac bc
       0.2280818 0.16404158 0.024790457 -0.021059904
000310 42 81 a3 bd cf fe 13 3d 45 5f e7 3d 42 ae 4e bb
       -0.07983638 0.036131676 0.11297468 -0.0031536971
000320 0d d8 55 be 2c f0 80 bd 78 df 22 3e c7 cb 29 3e
       -0.20883198 -0.06295809 0.15905559 0.16581641
000330 c6 3a 27 bd 14 72 bc bd e9 be fc bd 39 f3 91 be
       -0.040827535 -0.09201446 -0.12341101 -0.28505877
000340 8d a5 45 bc ad 4c 1a 3e be 60 21 3e 9e 7a 5c 3e
       -0.012063396 0.15068312 0.1575956 0.2153115
000350 af d2 4e be b4 de 4c be 22 68 15 3d 7b 35 aa 3e
       -0.20197557 -0.2000683 0.036476262 0.33243927
000360 06 2f 03 3e b2 da 5a be 80 df 21 3e 6c 58 c1 bc
       0.12810907 -0.21372488 0.15807915 -0.023601733
000370 2f d1 a6 be a1 55 7f 3e 8f f3 37 bd c5 8f 49 be
       -0.3258147 0.24935009 -0.04491001 -0.1968375
000380 fd 7c 7e be 39 21 8f 3e ac 4f a3 3d 40 4d 13 3e
       -0.24852367 0.27955034 0.079741806 0.14384937
000390 5a 18 7d be ad 9c a1 be 8e 1a 88 be f4 74 2d 3e
       -0.2471632 -0.31564847 -0.2658276 0.16939145
0003a0 c9 e1 dc 3d c0 a1 58 3e ca c2 d7 3d ca 56 2d 3d
       0.107852526 0.21155453 0.105352 0.042319097
0003b0 75 09 0c bd 36 e6 87 be 83 5f 8e be 67 4f 9a be
       -0.034188706 -0.26542825 -0.27807245 -0.30138704
0003c0 6f 80 bd 3d 6d 6c 20 be b2 6a cb 3c 18 61 44 be
       0.092530124 -0.15666361 0.02483115 -0.19177663
0003d0 48 4d 8a bd 2b 3f f6 bd dd 69 5b be bf 89 a5 3d
       -0.067530215 -0.12023767 -0.21427102 0.080829136
0003e0 73 c3 3b bb 69 3b 1c 3e e1 39 dc bd 7e ec 03 be
       -0.0028650432 0.15257038 -0.10753227 -0.12883183
0003f0 8e 83 4c bd 25 4e 86 bd 80 b3 d5 bd f5 2f 8c be
       -0.049930148 -0.06557874 -0.104346275 -0.27380338

head.dw.weight f4 [45, 1, 3, 3]
000000 ba ee 73 be da aa 3f bd e1 15 e6 bd e2 e9 d2 3c
       -0.23821536 -0.046793796 -0.11234642 0.02574629
000010 00 94 c5 3e 71 3a e2 3c 51 74 d5 3d 12 f1 64 3e
       0.38589478 0.027615758 0.10422576 0.22357586
000020 03 2d 2a 3e 32 74 25 bd 61 f2 bf bd 7d 5f 14 bc
       0.16618733 -0.040394016 -0.09372402 -0.009055969
000030 93 12 3f be 60 78 0f 3f 8e 3d ef bd 69 e6 00 bd
       -0.18659429 0.5604305 -0.116816625 -0.031469736
000040 6d 86 87 bd 2f 10 79 bb 97 6a 01 3e 38 70 ce 3e
       -0.066174366 -0.003800403 0.12638317 0.4031999
000050 5d 8a 25 3e 46 b9 03 be d3 f6 0c be 35 cc 84 be
       0.16166063 -0.12863645 -0.13766031 -0.25937048
000060 10 7d dd 3b 44 98 58 be 21 4e d6 3c e8 e9 24 bd
       0.0067592934 -0.21151835 0.026160302 -0.040262133
000070 66 71 88 bc 52 cb b1 bc 9e f7 71 bd c0 43 59 be
       -0.016655635 -0.021703396 -0.059074037 -0.21217251
000080 8c 05 80 bd bc a5 79 3d 9a d7 bb 3e 29 51 dc 3c
       -0.06251058 0.060949072 0.36687928 0.026894169
000090 cf 95 83 bc d2 7d f5 3c c8 dc e7 bc 44 86 c8 3c
       -0.016062645 0.029967222 -0.028303519 0.024478085
0000a0 cf ef fc 3e 22 bd 04 bf 9f a4 db bb 12 fb 0b 3d
       0.4940171 -0.51851094 -0.006702974 0.034174986
0000b0 b6 b1 52 bc 0b e2 35 3e 37 bd 8e be 0f b2 22 3d
       -0.012859752 0.1776201 -0.27878734 0.03972059
0000c0 e5 9f c8 bb fc 06 01 3e 35 9e ac 3c 0d d8 65 3e
       -0.0061225765 0.1260032 0.021071533 0.22445698
0000d0 f8 f9 a4 be 14 66 42 3d 88 ee 3b bc 55 e6 9d bd
       -0.3222196 0.04746063 -0.0114704445 -0.07709948
0000e0 30 eb 85 bc de 10 3c bd 92 b4 b4 3e 1e 8d c2 bd
       -0.016347498 -0.045914523 0.35294014 -0.09499572
0000f0 e2 ce a8 bc 7e d4 66 bd 59 a6 f0 bc 59 31 09 bb
       -0.020606462 -0.056354992 -0.029376196 -0.0020933955
000100 25 fc 2a 3d a9 3d 8a 3a 62 86 4e 3d d1 5c 49 bf
       0.04174437 0.0010546941 0.050421126 -0.7865725
000110 db f6 8e 3d 4b ba f3 3b 97 c8 e1 3d a1 ae 85 bb
       0.06980678 0.0074379793 0.110245876 -0.0040796553
000120 7c ae 18 be ee e8 b9 3e 08 9c c2 bc 00 f8 44 be
       -0.1491031 0.36310524 -0.023756042 -0.1923523
000130 fa a5 9d 3d 3c cd 7d be 31 98 a6 bd f6 67 94 3e
       0.07697673 -0.24785322 -0.08134497 0.28985566
000140 49 59 03 bd 47 63 e6 3c ec 10 6e be 28 3a bc bd
       -0.03206757 0.028123511 -0.23248643 -0.0919078
000150 eb c0 3c 3c 6b d7 90 be b3 e2 23 bd 42 f6 26 3e
       0.011520605 -0.2828935 -0.04001112 0.16304877
000160 02 e7 92 be 20 98 fc 3d aa 69 a3 bc c1 87 ad 3c
       -0.2869187 0.12333703 -0.019947845 0.021182897
000170 46 46 86 bb 3c 49 bb 3e ce 96 81 3d 39 1f ad 3c
       -0.0040977327 0.3657931 0.06327592 0.021133052
000180 a0 ca ad be c7 cf a4 bd e8 52 ab bc 22 21 33 3b
       -0.33943653 -0.08047443 -0.020913556 0.002733298
000190 af f0 53 3c ec 17 91 bc d8 37 9d bb 2a c5 06 3f
       0.012935801 -0.017711602 -0.004797917 0.526446
0001a0 97 8f 05 bf 48 95 91 3b f5 07 e8 3b 74 a5 d9 bb
       -0.52172226 0.0044428445 0.0070810267 -0.006642038
0001b0 2d ad 9b bc fc a9 b6 bd 34 ea 86 bc 9b c5 8d bd
       -0.019003475 -0.08919141 -0.016469099 -0.06922456
0001c0 a5 16 bf 3e 38 f1 b3 bd d7 4a 6f bc 1d 53 51 bd
       0.37321964 -0.08786243 -0.014605246 -0.051104654
0001d0 f4 bb 99 bc 31 56 06 3c d7 6d 00 be 27 02 27 3e
       -0.01876638 0.008199261 -0.125419 0.16309415
0001e0 ac a6 71 be e4 f6 af 3e 6c 91 ad be 69 26 4e 3e
       -0.23598737 0.3436805 -0.3390001 0.2013184
0001f0 66 90 14 be c0 af 0d 3e a5 50 37 3e c5 67 9e bc
       -0.14508209 0.13836575 0.17901857 -0.01933659
000200 22 0d 18 be 66 b1 d1 be 4e 26 95 3c cb e5 b4 3e
       -0.1484876 -0.40955657 0.018206742 0.35331568
000210 f7 10 87 3e 10 ea 37 bc fd c4 62 be 44 3d 0b 3d
       0.2638013 -0.011225238 -0.22145458 0.033993974
000220 f4 d2 f7 bd f8 5c a7 3d 8f 43 20 bd 2e e8 6f be
       -0.12100783 0.08172029 -0.03912693 -0.23428413
000230 dd 51 94 3e a9 6c b0 3b b3 02 52 bd a1 65 2d 3d
       0.28968707 0.005384047 -0.051272105 0.04233325
000240 2c df 3c bc b1 6f f1 3b 4b 18 84 bb 17 2b 3b ba
       -0.011527818 0.007368051 -0.0040312163 -0.0007139905
000250 c3 1c 14 bf c6 77 26 bc 8c 5e 78 3c cc 6b 12 3f
       -0.57856387 -0.010160392 0.0151592605 0.57195735
000260 95 bd 11 3c 5a 7b b9 3c 2a c9 58 bd aa ae 94 3c
       0.008895298 0.022641826 -0.05292622 0.018149693
000270 7d 12 25 bd f9 23 50 3e 6c d1 68 bd ad ec c5 3c
       -0.040300835 0.20326222 -0.056840345 0.024160707
000280 3d 4d 6a bd 68 11 c1 3c ac 8b 1e bb b2 e3 58 bc
       -0.057202566 0.02356787 -0.0024192138 -0.013237881
000290 1d 97 87 3c c9 25 be be 95 ec be 3e 63 7b 8c bc
       0.016551549 -0.37138203 0.37289873 -0.01714868
0002a0 49 f9 ac bc 4f 6c a1 3c 47 f9 fd 3b 41 f2 9e 3d
       -0.021114962 0.019704966 0.0077506634 0.0776105
0002b0 3d b1 5c 3e dc 06 af be 68 0b a4 3e 2a 4c d0 3e
       0.21551986 -0.3418492 0.32039952 0.4068311
0002c0 22 92 40 3e dd 64 a9 be c1 b0 a1 bd 5e b0 fb bd
       0.18805745 -0.33084765 -0.07895041 -0.12289499
0002d0 f2 3e 78 3c bf 4f ba 3d 3f 11 91 3c d8 be de 3e
       0.015151726 0.090972416 0.017708419 0.43504977
0002e0 4e 98 ee be 52 69 df bc a5 4b ab 3d 35 83 13 be
       -0.46600574 -0.0272719 0.083640374 -0.1440552
0002f0 68 d5 0b bb 7c c8 0c 3c 07 1f da ba 89 60 0a 3c
       -0.0021336917 0.008592721 -0.0016641327 0.008445867
000300 85 92 3c bd 3f 01 85 3c ea 98 74 bd db 23 01 3b
       -0.04603817 0.016235946 -0.059716143 0.001970521
000310 e6 ff 3a bc f8 12 b6 bb 63 35 7f 3d e6 9b fc 3d
       -0.01141355 -0.0055564605 0.062306773 0.12334423
000320 f5 49 09 be 64 4c 93 be f9 94 3d 3e fc 9c 0e 3e
       -0.13407119 -0.2876922 0.1851386 0.13927072
000330 6e bb b8 3c ca 8b 35 be 71 52 80 3d c3 f3 04 3d
       0.022550311 -0.17729107 0.062657245 0.03245903
000340 ef b4 fc be eb f1 90 3d 95 27 cb 3d c5 83 51 3e
       -0.4935679 0.07077392 0.09919659 0.20460422
000350 d7 37 0c bc c0 5f 0c be 8c af 9e 3e 4e 40 9d bd
       -0.008558235 -0.137084 0.30993307 -0.07678281
000360 65 79 cb 3c b4 67 bb ba 16 b8 77 bc 19 42 b8 3e
       0.024838159 -0.0014297874 -0.015119573 0.35987929
000370 6a 1e c1 be be c5 45 3c 94 69 77 3c 1b cb 20 bc
       -0.37718517 0.012071071 0.015100855 -0.009814049
000380 06 4b 32 bc 9d e9 38 3d 32 73 87 3d 6e 8e 64 be
       -0.010882145 0.045144666 0.06613769 -0.22319958
000390 70 21 4e be d7 9e 17 3f db 3e 04 3d 26 ac 23 3d
       -0.20129943 0.59226745 0.032286506 0.039959095
0003a0 21 7c 69 be 11 90 fb bd be d9 b7 bc 8a f7 93 bd
       -0.22801258 -0.12283338 -0.022442695 -0.07224949
0003b0 d2 de d5 bd da a4 ca bc 8c 29 18 3e af 76 1d bd
       -0.1044289 -0.02473681 0.14859599 -0.038443264
0003c0 74 f1 61 3c 2f 25 2f bd 41 e6 89 3d dc 2e 44 3e
       0.013790477 -0.04276007 0.067333706 0.191585
0003d0 75 38 be be c5 67 cd 38 e5 08 92 3d fb 45 67 3e
       -0.37152448 9.79449e-05 0.07130603 0.22585289
0003e0 e8 1b 90 be f1 fa 4c 3e 39 54 22 be 7e 67 06 3e
       -0.2814629 0.20017602 -0.15852441 0.13125417
0003f0 1c 5d e8 bc 99 2c 3f 3e bb 46 ed bc 7e ad a9 bd
       -0.02836471 0.18669356 -0.028964391 -0.08285044

head.dw.bias f4 [45]
000000 c8 22 a0 3d d0 ae 98 be e0 67 69 be 9f e6 e9 ba
       0.07819134 -0.2982087 -0.22793531 -0.001784522
000010 13 48 b1 3d ec da a6 3e 47 9e a3 3d 47 bb 0e 3e
       0.08656325 0.325889 0.079891734 0.13938628
000020 5f 45 98 3e c8 27 1e 3e ea 4d 1c be 37 54 36 be
       0.29740426 0.15444863 -0.15264097 -0.17805563
000030 ec 4a 06 3e 4f cc ad be 5e dc 31 be 7d 0f 37 bd
       0.13114518 -0.33944938 -0.1736922 -0.044692505
000040 0a c6 d3 3d 5c 00 14 3f 96 57 8c 3e b6 ea 48 bd
       0.10340507 0.5781305 0.27410573 -0.049051963
000050 9a b3 d3 3c 4a 0f 7c 3f db eb fc bd 61 d4 37 3d
       0.025842477 0.9846083 -0.12349673 0.044880275
000060 77 4f 27 bd b4 62 9a be a2 b4 6e 3e f8 d2 a2 3d
       -0.040847268 -0.3015343 0.23311093 0.07950395
000070 08 f5 60 be c3 0e a0 3d f4 ce b5 3e 41 eb 48 bd
       -0.21968472 0.078153156 0.35509455 -0.04905248
000080 26 63 97 bc e0 c5 8a 3e 06 20 14 3d d5 7c 7d bc
       -0.018479895 0.27104092 0.036163352 -0.015471657
000090 29 63 93 3e 64 bd 5c 3e 46 6d bd 3e aa a4 55 bf
       0.2878659 0.21556622 0.36997432 -0.8345438
0000a0 fb 7f 84 bd de 33 93 be bf 8d a6 bd 07 86 d3 3d
       -0.06469723 -0.2875051 -0.08132505 0.10328298
0000b0 28 3c 67 be
       -0.22581542

body.0.c1_d.weight f4 [22, 45, 1, 1]
000000 6f d2 dd 3c 3c 5d 26 3e 0c 85 72 bd a1 36 f6 3d
       0.027077882 0.16246504 -0.059208915 0.120221384
000010 9b be 87 3d 21 d1 ca be 9c 3b 4e bf 5f 2d 99 be
       0.06628152 -0.39612678 -0.80559707 -0.29917428
000020 2c 09 9d 3d 6e 49 c7 3d 8f 7d 8e 3e 12 d3 6b be
       0.07667765 0.097308025 0.2783017 -0.23029736
000030 8c 49 29 bf 76 ec d6 bd 11 b5 c1 3c ce 1c 33 3f
       -0.6612785 -0.1049432 0.02364591 0.6996583
000040 fd 4b 87 be 81 a5 36 c0 74 a5 33 3d e4 66 9d 3c
       -0.26425162 -2.8538516 0.04385896 0.019214101
000050 f2 b6 19 3e 8d 69 d5 be 30 d6 23 bd a1 27 99 3b
       0.15011194 -0.4168209 -0.039999187 0.0046739136
000060 27 4e 8e be 4e e3 5f 3c d2 cb dc 3b 2a 06 98 be
       -0.27794 0.0136650335 0.0067381645 -0.29692203
000070 8e cf 2a 3e 5d 2f d0 3e ad a1 57 3f 6a 6b 19 3f
       0.16680738 0.40661135 0.8423107 0.59929526
000080 62 0c b8 bf 07 cc 89 3e d6 30 e7 3d f4 aa d0 be
       -1.4378779 0.26913473 0.112886116 -0.40755427
000090 d8 54 ef 3e 08 6e fc be d4 98 6a 3c e7 51 94 be
       0.46744418 -0.49302697 0.014318664 -0.28968737
0000a0 43 03 4f 3e 3d 4e 85 3f ff 92 c6 be 28 9e 5c 3e
       0.20216088 1.0414501 -0.38784024 0.21544707
0000b0 dd b4 b6 3f d3 af b9 3d de 87 0d be 07 3d 7e be
       1.4273945 0.09066739 -0.1382136 -0.24827968
0000c0 7c 11 8a be 6c 95 03 3d 1e aa e6 3d 94 f7 04 be
       -0.26966465 0.03212492 0.11262916 -0.12985069
0000d0 06 d6 25 3e d5 b6 a8 be c0 bc 9d 3e 93 10 a4 3b
       0.16194925 -0.3295199 0.30808067 0.0050068586
0000e0 ee 7f 34 3d 75 ab a1 3e dd 4e c8 3e 6a 19 03 3e
       0.044067316 0.31576124 0.39122668 0.12802663
0000f0 2b cc dc 3e ab 96 60 3e f1 91 39 be d5 c9 2a bc
       0.43124518 0.21932475 -0.18122078 -0.010424097
000100 46 29 89 bd 67 78 b5 be 4b b7 02 3f 99 a4 b1 3e
       -0.066973254 -0.35443422 0.5106093 0.3469589
000110 70 eb 69 3f 07 b5 b8 3e 5b 1a 39 3e 70 f3 75 3d
       0.91374874 0.36075613 0.1807646 0.060046613
000120 b8 75 91 3e 84 4d 9b 3d d0 24 94 bd 12 0b 90 3e
       0.28410125 0.07583144 -0.07233584 0.28133446
000130 d5 ea 40 3d 67 6e 94 be 1c 5b d0 3e 01 07 15 3e
       0.047098953 -0.2899048 0.4069451 0.14553453
000140 c1 0e 35 3d 5c 1a 4f 3e ab 14 6b 3c be dd 79 bd
       0.044203524 0.20224899 0.014348189 -0.061002485
000150 a1 ba a8 be 3c 8f bf bb 8c 04 93 3e 81 cb 25 bf
       -0.32954887 -0.0058459323 0.28714406 -0.6476365
000160 81 43 8c be 75 34 06 be 4b e3 24 3d b8 61 01 3f
       -0.2739525 -0.13105948 0.040255826 0.5053973
000170 2b ab b7 3d e6 dc 0c bf 8f 10 88 3e 2b 13 29 be
       0.089681946 -0.55024564 0.26575133 -0.16511218
000180 61 72 e6 3b 5a 7d 41 3c 80 a6 58 bd 78 dc 8c bd
       0.007032678 0.011809671 -0.05289316 -0.068779886
000190 37 3f 6f 3d e8 62 ee 3d 6a a7 11 3d e1 f9 99 3e
       0.058409896 0.116399586 0.03556005 0.30073455
0001a0 a0 9a 92 bd d5 3f ef 3c 2b 96 82 bf db f4 ba be
       -0.07158399 0.029205242 -1.0202078 -0.36514935
0001b0 79 a9 47 be 76 d7 1e bd 61 ad 20 be d1 ad a3 3d
       -0.19498242 -0.0387797 -0.15691139 0.07992137
0001c0 a0 4d c4 bc 20 3a 29 3e d6 1e 8d be a1 41 43 3e
       -0.023962796 0.16526079 -0.27562588 0.19068004
0001d0 31 a7 c3 3e d8 2c 93 3e 2d 72 e9 bd 4c e1 59 bf
       0.38213494 0.2874515 -0.113987304 -0.851094
0001e0 35 93 c5 be 99 e0 d7 3d ef b4 89 bc 25 58 d6 bd
       -0.38588873 0.105408855 -0.016809909 -0.10466031
0001f0 37 78 fb be b0 cc a4 bd 0a d9 89 3e a9 d4 76 3d
       -0.49115154 -0.080468535 0.269234 0.060261402
000200 4e fb 07 be 8e 82 27 3e 9a 38 e9 bd 64 4c 0d 3d
       -0.13279459 0.16358396 -0.11387749 0.03449668
000210 ec 4e 19 be 42 a0 8c 3b 6d 6a 07 bd a8 2e 78 be
       -0.14971513 0.004291565 -0.03306048 -0.24236548
000220 49 75 9b be 3a 25 31 be a4 70 c0 be dd 94 f8 bd
       -0.3036292 -0.17299357 -0.37585938 -0.121377684
000230 af 0b 89 bd 0e 29 ac 3d 4a 62 54 3d c3 bb dc be
       -0.066916816 0.08406268 0.05185155 -0.43112
000240 36 7b 6b 3e ec 38 4c be 26 77 ce bc f3 85 f5 3e
       0.2299622 -0.19943589 -0.025203299 0.47953758
000250 53 61 ca bd 13 f7 95 3d 76 cd 1f be 1e 38 73 3e
       -0.09881844 0.07322516 -0.15605721 0.23751876
000260 8b 28 4a be e3 1a 14 3f 3f ac 83 bb 32 7d 2b be
       -0.19742028 0.57853526 -0.004018336 -0.16746977
000270 d0 f8 e3 be b5 8e 58 be 10 7b 91 3f 51 b4 86 3e
       -0.44525766 -0.21148188 1.1365681 0.26309446
000280 36 46 9d bc 20 e3 73 be 1f bb a3 3e c4 98 32 3e
       -0.019198518 -0.2381711 0.319787 0.17441088
000290 6b d5 35 3e 9a 3d 21 3e 25 02 65 3f e3 a4 71 3e
       0.17757194 0.15746155 0.894564 0.23598056
0002a0 a6 38 96 3e 2e c2 e8 3e 74 05 86 be 51 dd 81 3e
       0.29340094 0.45460647 -0.26176035 0.25364164
0002b0 7b d1 19 be af 5d 9f 3e b5 df a2 be 65 cd dc bc
       -0.15021317 0.31126162 -0.318113 -0.026953408
0002c0 8f 9e db 3b 66 1a e6 3e df 83 36 3e dc f4 5e 3d
       0.0067022513 0.44942015 0.17823742 0.054432735
0002d0 4a ac 75 3e fe 7d c6 be af 69 fa bd cb f7 04 3e
       0.23991504 -0.38768 -0.12227189 0.1298515
0002e0 46 21 a9 be cf 93 37 be 8e 65 c2 bd ff 34 80 be
       -0.33033198 -0.17927478 -0.09492026 -0.25040433
0002f0 6e 0d d1 bb 65 bb b8 3e 7c 0f aa 3e 67 1c a0 be
       -0.006379775 0.3608047 0.3321494 -0.3127167
000300 4d 74 65 bf 7b 47 14 3d 9f 73 37 be 45 f8 43 bb
       -0.89630586 0.03620098 -0.179152 -0.002990262
000310 31 d1 a1 3e ad 80 0d bf 06 5e 27 3f d1 f8 72 bd
       0.31604913 -0.5527447 0.65377843 -0.05931932
000320 40 43 88 3d 3e e9 a1 bf 0c fd 1b be d2 86 19 be
       0.06653452 -1.2649305 -0.15233248 -0.14992836
000330 11 72 d5 3e c0 aa 2e be 6f fa 81 bf 1d c3 e4 be
       0.41688588 -0.17057323 -1.0154551 -0.4468011
000340 98 f2 3b 3e d3 b6 87 3e 22 c2 06 3f 29 2c cc bd
       0.18354261 0.2650667 0.52639973 -0.099693604
000350 66 e2 d3 be 51 1d dc 3d 9a 85 b7 3e ec 42 92 3d
       -0.41383666 0.10747779 0.35844117 0.071416706
000360 5d 86 84 be 6c 14 fb bd 7d dd 81 3e d7 81 99 be
       -0.2588376 -0.122597545 0.25364295 -0.29981872
000370 5b a8 26 3d e2 f9 15 3d a7 ac 2c 3e 22 03 ab 3d
       0.0406879 0.03661526 0.16862737 0.08350207
000380 f2 a7 51 3f 57 35 19 3d e9 df 3e be b1 f0 8e 3e
       0.8189689 0.037404384 -0.18640102 0.27918008
000390 54 a6 40 3d 04 eb 60 3f ff d6 ae be bf 93 f6 bb
       0.047033623 0.87858605 -0.34148404 -0.007524937
0003a0 52 ed 8a 3d cb f5 8f 3e 1a 9f a9 bc e5 54 df bd
       0.067835465 0.28117213 -0.020705748 -0.10904864
0003b0 54 00 7d 3f 2e 0a 6f be ea e6 89 be bd 56 6a 3e
       0.98828626 -0.23343727 -0.26933986 0.2288465
0003c0 f1 0f 98 3f 7d a6 ec bd ba 5a 6d 3d 88 ad ae 3e
       1.1879865 -0.115551926 0.05794785 0.3411677
0003d0 32 1f d1 3c 6c 3d 59 bc 4e 1c 56 3f 14 38 36 be
       0.02552757 -0.013259273 0.8363694 -0.1779483
0003e0 85 ac 47 3c ee d2 ef 3c e6 b0 76 be 64 db b0 bd
       0.012187128 0.029275384 -0.24090919 -0.086355954
0003f0 cf bd e7 3e d1 1a c3 bc 87 0a 7b 3c e9 da d7 3d
       0.45262 -0.023816498 0.015322334 0.10539801

body.0.c1_d.bias f4 [22]
000000 17 31 aa 40 09 93 c9 40 70 e7 11 40 5a 1c 51 40
       5.3184924 6.2991986 2.2797508 3.2673554
000010 bc 35 33 41 7c d4 f0 40 5e c5 49 be 33 1d bb 40
       11.200619 7.525938 -0.19704196 5.8473144
000020 66 1b 82 be 33 24 b0 40 30 7b 0a 3f 4a c0 7c 40
       -0.25411528 5.504419 0.5409422 3.9492364
000030 51 73 02 40 6b 94 99 40 40 71 2b 3f bf a4 88 40
       2.0382884 4.7993674 0.6696968 4.2701106
000040 eb bf 00 41 5a 3c cd 40 64 56 f3 3e 1b b9 d3 3f
       8.046855 6.413617 0.47526848 1.6540865
000050 0c bc a9 3f d5 2d 4d 40
       1.3260512 3.2059224

body.0.c1_r.norm.weight f4 [45]
000000 e7 03 a7 3f fb 90 97 3d b0 06 25 3b 0e 98 ff bf
       1.3048066 0.074007 0.0025180988 -1.9968278
000010 00 00 80 3f 89 78 b9 3f b0 63 46 bd 26 d8 07 3d
       1.0 1.448991 -0.048434913 0.03316512
000020 cb 6c 80 bd 00 00 80 3f 35 8c 30 3f a6 78 73 3c
       -0.062707506 1.0 0.6896394 0.014860308
000030 07 2a ec bc 4e 5b db be 00 00 80 3f b5 a1 1d bd
       -0.028828634 -0.42843097 1.0 -0.038484294
000040 99 3b a5 bd 18 5f af 3c f6 a1 90 3c 00 00 80 3f
       -0.08068008 0.021407649 0.017655354 1.0
000050 8c 31 a5 3d b4 d3 1e 3e 55 18 c1 3c 1e b7 d9 be
       0.08066091 0.15510446 0.023571173 -0.4252252
000060 00 00 80 3f 4a ef 39 be fd fc 54 3e bf f3 84 bd
       1.0 -0.18157688 0.20799632 -0.064918034
000070 f6 f5 1a be 00 00 80 3f 97 d3 97 3c 40 fb be bd
       -0.15132889 1.0 0.018533511 -0.09325266
000080 74 ba b1 bc 0d 2b e8 3a 00 00 80 3f 71 4c 4c bd
       -0.021695353 0.0017713025 1.0 -0.049877588
000090 82 c1 06 40 46 1a 98 3d 8e 19 fb bd 00 00 80 3f
       2.1055608 0.07426886 -0.122607335 1.0
0000a0 b8 7e b5 be 31 b7 02 3e 11 d3 47 be 3e 1e 24 be
       -0.3544824 0.12765194 -0.19514109 -0.16027161
0000b0 00 00 80 3f
       1.0

body.0.c1_r.norm.bias f4 [45]
000000 8b ae 5e 40 f7 c4 ce 3f 6a 8d 96 3f 99 b7 7f 40
       3.4794033 1.6153859 1.1761906 3.995581
000010 a0 81 9c be b7 59 4f 40 e0 21 c9 3f eb 4f 13 40
       -0.30567646 3.2398508 1.5713463 2.3017528
000020 bd ce 7e 3e 98 ed 46 40 6c 3b c6 3f af 2e 57 3f
       0.24883552 3.1082516 1.5486884 0.8405561
000030 75 67 b1 3f 21 63 8e 3d fe 10 83 ba 84 15 38 3f
       1.3859698 0.06952501 -0.0009999571 0.7190783
000040 c3 da a4 3f 6f bf d5 40 88 29 55 bd 4f ac 8f 41
       1.2879261 6.6796184 -0.05204156 17.959135
000050 5e 09 5e 3e d2 c2 bd 40 08 15 b4 3f d5 cd ed 3e
       0.21683261 5.930032 1.4068918 0.464461
000060 b3 f6 01 40 0d d4 51 3f 8f c9 59 40 4c c8 8a 3f
       2.0306823 0.8196419 3.4029272 1.0842376
000070 d0 4b f2 3f 4e 3e 80 3f 78 64 9d 3f b1 40 49 3d
       1.8929386 1.0019014 1.2296286 0.04913396
000080 2a e5 67 3e 7d 77 ee 3f 1d d9 a6 bd 22 ce a9 3f
       0.22646013 1.8630215 -0.0814688 1.3266032
000090 2b 47 c4 3f 57 a6 f6 3f 1e b9 58 bd 77 ba fd 3f
       1.5334219 1.9269513 -0.052910917 1.982253
0000a0 4d 65 0c 3f a8 37 d2 3f c9 7d 6b 3f 3b d5 5c 3d
       0.5484207 1.6423235 0.9198881 0.05391429
0000b0 ce 63 ba 3f
       1.4561708

body.0.c1_r.norm.running_mean f4 [45]
000000 f5 1e de b1 48 55 b6 31 86 6c 88 30 93 e9 60 32
       -6.4645698e-09 5.3065925e-09 9.926147e-10 1.3091625e-08
000010 00 00 00 00 e5 e5 27 32 7e ef e7 af d1 a4 88 30
       0.0 9.772951e-09 -4.2188825e-10 9.942146e-10
000020 5e 3d e8 b0 00 00 00 00 1a 2c e2 ae d3 3f 8c 32
       -1.6897663e-09 0.0 -1.0285124e-10 1.6327169e-08
000030 3c 52 80 30 87 d2 1f ae 00 00 00 00 ed 16 0f 31
       9.336598e-10 -3.63394e-11 0.0 2.082227e-09
000040 3f 66 5d b0 9a fc 4f 2f 88 3c 4c 2f 00 00 00 00
       -8.054463e-10 1.8916282e-10 1.8575197e-10 0.0
000050 66 c5 cc 32 ff 32 17 2f 9a 5d ab 2f 89 94 bc b1
       2.3838492e-08 1.3751487e-10 3.1171227e-10 -5.4884066e-09
000060 00 00 00 00 ed 1a d6 31 43 49 1c 2f 79 0e 55 b1
       0.0 6.231281e-09 1.4214145e-10 -3.1003806e-09
000070 bc a3 b2 2f 00 00 00 00 e9 21 41 2e 24 f0 66 af
       3.2494352e-10 0.0 4.3913238e-11 -2.1003693e-10
000080 b4 7b a4 ad 9f 3d 6d 2f 00 00 00 00 48 4a a4 30
       -1.8699577e-11 2.1576917e-10 0.0 1.1953682e-09
000090 d8 5e 22 31 93 24 93 30 49 19 5d 31 00 00 00 00
       2.3628015e-09 1.0706053e-09 3.2174106e-09 0.0
0000a0 44 da 0e 2e 04 12 53 2d 14 f3 0b 30 7c 04 b8 2e
       3.248092e-11 1.1997962e-11 5.091334e-10 8.368148e-11
0000b0 00 00 00 00
       0.0

body.0.c1_r.norm.running_var f4 [45]
000000 2d bf d3 42 2c dd ab 41 48 cd 32 41 6d 04 6e 41
       105.87339 21.482994 11.1751175 14.8760805
000010 04 00 00 00 23 10 86 41 ee 6c bb 3f 16 16 8b 41
       6e-45 16.75788 1.4642618 17.385784
000020 1e 43 58 40 04 00 00 00 b6 c0 1f 3f c2 34 91 42
       3.3790965 6e-45 0.6240343 72.60304
000030 5f cb cf 3f 41 77 f3 3f 04 00 00 00 05 2c 99 3f
       1.6233939 1.9020768 6e-45 1.1966559
000040 a1 1e ca 41 c0 a6 98 3e 49 51 b7 3f 04 00 00 00
       25.264956 0.2981472 1.4321681 6e-45
000050 cd c3 01 43 be c4 9a 3d ec 8a 98 3f 56 50 9f 41
       129.76485 0.07557057 1.1917396 19.914227
000060 04 00 00 00 e1 05 0a 42 7a de f7 3d 9a 0f b7 40
       6e-45 34.50574 0.12102981 5.7206545
000070 ca cb b3 40 04 00 00 00 3e d4 3d 3f d1 68 8d 40
       5.6186266 6e-45 0.7415198 4.419045
000080 2d 53 97 3f e7 d4 bf 3e 04 00 00 00 17 23 83 40
       1.1822258 0.3746712 6e-45 4.0980334
000090 3d 70 8d 40 69 b3 e3 41 1a 7e 95 41 04 00 00 00
       4.419951 28.462603 18.686573 6e-45
0000a0 e0 b1 2f 3f 07 dd 15 40 16 4b ed 3f ca 5c d8 40
       0.6863079 2.3416154 1.853854 6.761327
0000b0 04 00 00 00
       6e-45

body.0.c2_d.weight f4 [22, 45, 1, 1]
000000 c8 92 6a bc c3 a1 51 bd 57 25 2c 3e 5a fc 59 bd
       -0.014317222 -0.05117966 0.16811119 -0.053219177
000010 9b 64 2d bc ed 15 07 bd f8 3c 2f 40 53 ce ce 3d
       -0.010583068 -0.032979894 2.7380962 0.10097947
000020 6a 16 1e 3b 5c 54 c6 3c d8 0c 75 be 34 75 a2 bc
       0.0024122247 0.024210148 -0.23930681 -0.019831277
000030 e2 4a 53 bf 94 d3 8d bc 22 2a fb bc 03 c8 5a 3b
       -0.8253614 -0.017312802 -0.030659739 0.0033383376
000040 bb 60 0f 3e 6b b2 7f 3f 5e d7 b1 3e 35 55 8d bc
       0.14001743 0.9988162 0.34734625 -0.017252544
000050 76 35 6b bb b7 27 3f bf e0 30 40 be a9 b6 c0 bd
       -0.003589002 -0.74669975 -0.18768644 -0.0940984
000060 88 71 8d bf e6 4c c9 3c f5 57 51 be 52 bf 83 3c
       -1.1050272 0.0245728 -0.20443709 0.01608244
000070 d4 dc ff 3e 7f c0 44 be 74 25 04 3e fd ca 88 bd
       0.49973166 -0.19214056 0.12904912 -0.06679342
000080 c0 75 ca 3d f0 f4 88 bf a4 96 6f 3d 11 7c e6 be
       0.0988574 -1.0699749 0.05849327 -0.4501653
000090 0f 51 69 bd cc 39 f4 bd ee 2b c2 be 05 eb c9 3c
       -0.05696207 -0.119250864 -0.3792414 0.024648199
0000a0 49 98 d3 be 8d 27 84 be 14 7e f8 bc 2d 84 89 bd
       -0.41327122 -0.25811425 -0.030333556 -0.06714664
0000b0 f7 81 a9 3f da d2 f9 3d 34 4a a5 bd e7 d6 5d be
       1.3242787 0.1219842 -0.08070794 -0.2166401
0000c0 40 1b 2c be 3f 59 45 be 7e b9 79 3e 73 6b 85 3d
       -0.1680727 -0.19272326 0.24387166 0.06514635
0000d0 c0 31 a8 3e 10 bd fa 3e a4 21 79 3e 50 cc de 3e
       0.32850456 0.48972368 0.24329239 0.43515253
0000e0 9c c8 fe 3e b7 6b e8 3e 61 1e 9e 3e 93 c1 d8 be
       0.49762428 0.4539468 0.30882552 -0.42335185
0000f0 d1 c5 95 3e 86 40 3a bd 69 3b 46 be 55 10 f0 bd
       0.29252484 -0.04547169 -0.193586 -0.11721865
000100 b4 30 fb 3c bc 82 b9 3c b9 d4 49 3e 30 37 4d be
       0.030662872 0.022645347 0.19710054 -0.20040584
000110 34 23 5f 3e 46 ac 40 bd 40 3c f4 3d 39 8b ee be
       0.21790773 -0.047039293 0.11925554 -0.46590593
000120 da 27 b8 be 34 8a 0c bf 3d 50 a9 3d fb 63 39 40
       -0.35967904 -0.5489838 0.08267257 2.8967273
000130 e0 46 9a be 6c eb c1 3e 69 0a 36 3e 52 a6 9a 3e
       -0.30132198 0.37874925 0.17777409 0.30205017
000140 ab f1 0e 3e 68 ff be bd 6a 8c 10 3e 5f 24 10 3f
       0.13959377 -0.093260586 0.14116064 0.563055
000150 96 91 2c be b8 01 26 3e d5 99 80 3d 40 3f 16 bf
       -0.16852412 0.16211593 0.06279341 -0.5869026
000160 b5 48 c1 bd db a7 ef be d1 76 bc 3d 64 20 c2 3e
       -0.09437696 -0.4680775 0.0920235 0.37915337
000170 59 83 ea be 7e da 72 be f2 3f 98 c0 f4 05 1e be
       -0.45803335 -0.2371616 -4.757806 -0.15431958
000180 c1 d6 93 bf 9d b3 60 bd e3 e5 f4 bf 17 25 aa bd
       -1.1549913 -0.054858793 -1.9132656 -0.083078556
000190 1b f8 81 3d 0a 04 67 3d 59 58 0c bf c4 2b 92 c0
       0.063461505 0.056400336 -0.5482231 -4.5678425
0001a0 14 32 cf c0 ad 0d 0d 3f 3f 68 dc be 4d fd 7d 3e
       -6.474863 0.5509899 -0.43048283 0.24803658
0001b0 6c c5 b0 3e 5d 75 b7 bd b3 ee 9d bf 01 17 b8 3e
       0.3452562 -0.08957932 -1.233847 0.3595505
0001c0 d9 be ac be 8d 11 07 3e 02 12 8a 3e e0 e6 97 bf
       -0.33739355 0.13190289 0.26966864 -1.1867332
0001d0 97 8e 6f 3f 9c ba 8d bf de 99 0e 3f a4 bc f1 3d
       0.9357695 -1.1072574 0.5570353 0.118035585
0001e0 c9 3e 29 3e 53 d8 16 3f 91 5e 5f be ed 91 ef 3d
       0.16527857 0.58923835 -0.21813418 0.11697755
0001f0 f6 93 41 c0 5c 65 36 3f be 9f 84 bf e7 5c 2f bd
       -3.0246558 0.7124841 -1.036125 -0.042813208
000200 5e 7b 30 3f 52 4c fc bf b9 d5 35 3e 82 16 c1 3f
       0.68938243 -1.9710791 0.1775731 1.5084994
000210 fd 60 19 bf a2 ea 1f be a1 ce 22 3f 4a f0 f3 bd
       -0.5991362 -0.15616849 0.6359654 -0.11911066
000220 a3 5a 12 bf ca 20 73 be ed 28 90 be 40 e0 b3 3e
       -0.5716955 -0.23742977 -0.28156224 0.35132027
000230 86 02 55 be 4a 08 3e bf 3d 17 a5 3d f9 5f fc bd
       -0.20801744 -0.742314 0.08061073 -0.12322993
000240 27 3c b8 3d b6 a7 53 3e fb d8 18 be 42 90 fe be
       0.08995848 0.20669445 -0.14926521 -0.49719435
000250 49 3b 1c 3e 8d 0c ab bd dc 2e 70 bd 46 77 40 3e
       0.1525699 -0.08352003 -0.05863844 0.18795499
000260 56 fb 76 3f f4 29 f8 3e 4e 0b 4e bd d1 26 23 3e
       0.9647726 0.48469508 -0.05030375 0.15932776
000270 0a ec 93 3e d2 a8 8d 3e 2e ee fa 3e 5e a2 0b be
       0.2889102 0.27667862 0.49009842 -0.13636157
000280 6e b5 8f bc d9 2a a4 3f 0a 90 8e 3e 07 2c a2 3e
       -0.017542567 1.2825576 0.27844268 0.31674215
000290 f7 02 42 be 10 23 e6 be 0a 48 67 bf 1c 17 f3 be
       -0.18946443 -0.44948626 -0.903443 -0.4747857
0002a0 1b 2d 5a bf fb d8 de 3d 03 c8 98 3e f7 b2 3c be
       -0.85225075 0.108812295 0.29840097 -0.18427645
0002b0 12 94 9a 3d 4d 85 b4 3e c2 b4 30 3e 44 40 5b be
       0.075477734 0.3525795 0.17256454 -0.21411234
0002c0 74 7a fe 3e ec c6 90 be 75 e5 f2 3d 32 2f ff bd
       0.497028 -0.28276765 0.11860172 -0.12460174
0002d0 02 43 98 be 41 99 05 3d bb e2 cb bf 5a 53 82 3e
       -0.29738623 0.032616857 -1.5928568 0.25454217
0002e0 06 5e 0d 3e e6 52 09 40 1b 09 8b bd d6 2c 08 ba
       0.13805398 2.1456847 -0.06788846 -0.00051946694
0002f0 a8 ac 81 c0 13 77 6c be 6e f0 c0 3e 85 5f ce 3e
       -4.052326 -0.23092298 0.37683433 0.4030725
000300 27 9f 62 be 3d 01 20 bf aa a6 86 c0 4b 07 ac 3d
       -0.22131024 -0.6250189 -4.2078447 0.083998285
000310 15 cb 0e 3f 84 6b e5 3e d1 3f 3c bf 5c 80 1d be
       0.5577863 0.4480859 -0.73534876 -0.15380996
000320 59 fb 9a bf 67 3a df bb 38 8d dc bb 80 14 66 bf
       -1.2107955 -0.006812382 -0.006730702 -0.8987503
000330 d4 66 b2 3d fe db a2 3e f0 f5 51 3e 5b 2d e9 bf
       0.08711019 0.31808466 0.20503974 -1.8216966
000340 42 36 b8 3d cb f5 48 be 77 0f b9 3e a7 2b 13 bf
       0.08994724 -0.19625013 0.3614461 -0.57488483
000350 4b 56 d5 3d bf fd 07 3e 20 6f 8c 3d 17 43 98 3e
       0.1041685 0.1328039 0.06857133 0.29738685
000360 48 b9 56 c0 0e d4 b8 bc 1c 20 8f bf 01 e7 72 3e
       -3.3550587 -0.022562053 -1.1181674 0.23720933
000370 33 4d 36 3e 79 7b b7 bd 74 74 48 bf 57 a0 ae be
       0.17802887 -0.089590974 -0.78302693 -0.34106705
000380 81 79 66 3e 14 93 ea bd 84 20 5c 3e 60 be 51 be
       0.22507288 -0.11453834 0.21496779 -0.20482779
000390 54 4e 00 bf 46 c2 d1 3b 03 b3 52 3e 3e 91 73 be
       -0.5011952 0.006401333 0.205761 -0.23785874
0003a0 00 f4 8b 3d 85 19 ce bc ec 72 d5 3d 4e a7 27 bf
       0.06833649 -0.025158653 0.1042231 -0.6548966
0003b0 fd 82 9a be db e8 13 bf 59 05 51 bf 93 73 65 bf
       -0.3017806 -0.57777184 -0.81648785 -0.8962948
0003c0 f4 c0 de 3e ae 98 14 c0 50 a8 85 3f 0a 81 5e be
       0.43506587 -2.3218188 1.044199 -0.21728912
0003d0 1e a1 49 3d 69 d8 30 be 86 a6 23 3d 05 2c 42 3e
       0.04922592 -0.17270054 0.03995373 0.18962105
0003e0 ac b4 14 bf dd aa e9 3d 46 e7 af bd 74 36 3e be
       -0.58088183 0.11409543 -0.08589034 -0.1857546
0003f0 f0 9d 1f 3d 86 2e 6e 3e dc 82 38 3f 0a 09 5f bf
       0.03896898 0.23259935 0.72074676 -0.8712317

body.0.c2_d.bias f4 [22]
000000 1b 85 b2 3e 5f 3b 51 bf 56 4a e5 3f ef d1 8b 3f
       0.34867176 -0.8173122 1.791331 1.0923442
000010 62 fc 95 3d a1 f9 0c 40 d5 73 c3 3e d2 79 70 3f
       0.07323529 2.2027361 0.3817431 0.93935883
000020 15 5a d8 3e b0 2e a9 3f d6 d1 b1 3f 2e 21 fe 3f
       0.42256227 1.3217373 1.3892162 1.9853876
000030 46 e2 20 bd a0 9d 59 3f 8d 10 2a 3f 53 dd 9e 3f
       -0.03927829 0.8500614 0.66431504 1.2411293
000040 eb 7e 72 3f d1 77 bb 3c 58 54 5a 40 9c 1b 60 3f
       0.9472491 0.022884281 3.411398 0.8754213
000050 7b 87 53 40 da 43 bd 3f
       3.305144 1.4786332

body.0.c2_r.norm.weight f4 [45]
000000 23 ff 4c 3f 73 02 10 be 27 29 24 3e 03 c2 80 40
       0.8007681 -0.14063434 0.16031323 4.023683
000010 00 00 80 3f 51 71 d7 3e 88 46 f7 3d 69 81 4a bf
       1.0 0.4207864 0.12074 -0.79103714
000020 b4 0a a9 3d 00 00 80 3f 3d eb f1 bd 49 ef 1c 3e
       0.082539946 1.0 -0.11812446 0.15325655
000030 48 82 14 3d 29 c0 8d 3e 00 00 80 3f 3c c9 bd 3f
       0.03625706 0.2768567 1.0 1.4827037
000040 f4 00 ac 3d 8a 66 00 be c3 5a 75 3e 00 00 80 3f
       0.08398619 -0.12539116 0.23960404 1.0
000050 ff 4f 97 3f fe c8 9a bd c0 c1 92 be 71 35 d9 3e
       1.1821288 -0.075578675 -0.28663445 0.42423585
000060 00 00 80 3f 72 f1 c5 3e e3 2b 06 3d 70 9d 83 3e
       1.0 0.3866077 0.032756697 0.25706053
000070 ef b2 d3 be 00 00 80 3f c2 85 4c bd f8 c5 89 3e
       -0.41347453 1.0 -0.04993225 0.2690885
000080 65 6a ef 3c 80 c5 52 3d 00 00 80 3f 4a 61 12 3d
       0.029225538 0.051457882 1.0 0.035737313
000090 d1 20 77 3b cc 20 26 3f c9 0c a8 3f 00 00 80 3f
       0.003770877 0.64893794 1.3128902 1.0
0000a0 2a a4 df 3e 60 c8 76 be fa fd ab 3e 31 0b c6 3e
       0.43679935 -0.24099874 0.33592206 0.38680413
0000b0 00 00 80 3f
       1.0

body.0.c2_r.norm.bias f4 [45]
000000 88 94 a0 3e 59 d9 78 bd b6 fc f4 3e cc f7 2c bf
       0.3136332 -0.060754154 0.47849053 -0.6756561
000010 10 46 71 3f d9 dc e2 3e 57 7b 0b bf c1 53 0b c0
       0.9424753 0.44309118 -0.54485077 -2.176987
000020 0e 51 07 bd e3 67 0e 3f 00 dd 78 be 1c 9a d8 3e
       -0.033036284 0.5562727 -0.24303055 0.42305076
000030 4e e9 ab be fb 51 89 3f ed fb ac 3f a1 87 99 3f
       -0.33576435 1.0728143 1.3514382 1.1994516
000040 59 ef 30 be 64 30 3c 40 64 b0 5a 3f 5c 0b 84 3f
       -0.17278804 2.9404535 0.854254 1.0315967
000050 03 fe ec 3e 25 b1 14 40 91 7d 9e bd db 24 c8 3e
       0.46287546 2.323312 -0.07738794 0.39090618
000060 9e 20 9b 3d c1 e2 0d 3f 6c c4 b9 3f c0 3f 19 3e
       0.075745806 0.55424124 1.4513068 0.14965725
000070 8b 0c 13 be f2 03 b6 3d 2b 06 ff 3f ba 49 76 3f
       -0.14360254 0.08887471 1.9923757 0.9620625
000080 37 43 9a 3f 62 bc 58 bf 31 e4 88 3f a4 ed 40 bf
       1.2051762 -0.8466245 1.0694638 -0.7536261
000090 e3 bb 9d be f7 f0 ee be 09 e4 be 3e d1 f1 24 be
       -0.3080741 -0.46668217 0.37283352 -0.1610787
0000a0 8d c7 0f 3f e2 a1 84 bf 1b 7b 0c 3f 48 2b 71 3f
       0.56163865 -1.0361903 0.54875344 0.94206667
0000b0 92 4f 33 40
       2.8017316

body.0.c2_r.norm.running_mean f4 [45]
000000 e5 3d 08 32 4a 4d 2b 30 b1 55 58 b2 7c e1 dd 31
       7.930315e-09 6.231927e-10 -1.2592339e-08 6.457581e-09
000010 00 00 00 00 4f 17 73 b1 1c 08 59 30 f9 75 c9 af
       0.0 -3.5374403e-09 7.8955664e-10 -3.6645512e-10
000020 68 02 58 b0 00 00 00 00 5c c5 29 2f b2 be 00 af
       -7.858376e-10 0.0 1.5440577e-10 -1.1709281e-10
000030 56 71 ce ad da c4 7b af 00 00 00 00 5f ab c2 2f
       -2.346982e-11 -2.2898253e-10 0.0 3.541016e-10
000040 4e ab f6 2f 71 9f 85 ae 72 78 7b ad 00 00 00 00
       4.486886e-10 -6.076462e-11 -1.4294442e-11 0.0
000050 00 1b 47 b1 94 65 d4 ae 6a af 96 2e cb 58 ca 30
       -2.897366e-09 -9.658688e-11 6.85237e-11 1.4722671e-09
000060 00 00 00 00 80 52 f7 31 04 dd 00 2f 85 93 02 31
       0.0 7.1980253e-09 1.1720053e-10 1.9001345e-09
000070 78 a5 25 b0 00 00 00 00 a1 ed 5e ac ef b8 b8 ad
       -6.0261796e-10 0.0 -3.1680008e-12 -2.1000505e-11
000080 9b b6 a1 ae c5 9e 16 2f 00 00 00 00 b8 ff b4 30
       -7.3538696e-11 1.3698827e-10 0.0 1.3169403e-09
000090 0f 49 e5 b0 95 1a 40 af 3e fd b7 af 00 00 00 00
       -1.6682707e-09 -1.7471742e-10 -3.3467445e-10 0.0
0000a0 5b b0 c8 2e 45 a7 62 af 6f ff dd ad a6 f2 e8 2f
       9.126274e-11 -2.0614006e-10 -2.5238226e-11 4.2372966e-10
0000b0 00 00 00 00
       0.0

body.0.c2_r.norm.running_var f4 [45]
000000 94 7f a7 42 86 cf 58 41 86 ba 00 41 44 26 a5 41
       83.749176 13.550665 8.045538 20.643684
000010 04 00 00 00 08 ff a8 40 43 fb 9f 3f b5 00 26 41
       6e-45 5.2811317 1.2498554 10.375173
000020 bd 51 07 40 04 00 00 00 7f 77 b7 3e 67 5c 78 41
       2.114364 6e-45 0.35833356 15.522559
000030 46 a9 a6 3f 4c 1e 7a 3f 04 00 00 00 d4 cb 0c 3f
       1.3020408 0.9770248 6e-45 0.5499852
000040 9e 5c 40 41 bd fa 8a 3e d2 76 25 3f 04 00 00 00
       12.022612 0.27144423 0.6463443 6e-45
000050 32 2e a2 42 bd c0 2b 3d 97 3c 4c 3f 29 1f c7 40
       81.090225 0.041931856 0.7977995 6.2225537
000060 04 00 00 00 7d e4 a4 41 e2 08 6f 3d 87 d7 40 40
       6e-45 20.611567 0.05835808 3.0131547
000070 e5 f9 6c 40 04 00 00 00 7a 17 06 3f f6 cd 00 40
       3.7027524 6e-45 0.5237957 2.0125709
000080 10 55 5c 3e c0 4a a6 3e 04 00 00 00 8b eb 2f 40
       0.21516824 0.32478905 6e-45 2.7487514
000090 e7 2c 33 40 bf 73 a4 41 fa 20 9f 40 04 00 00 00
       2.7996156 20.556517 4.9727755 6e-45
0000a0 31 ba 38 3f d2 67 a7 3f 94 c3 9b 3f 48 7b 59 40
       0.72159106 1.3078558 1.2169061 3.3981495
0000b0 04 00 00 00
       6e-45

body.0.c3_d.weight f4 [22, 45, 1, 1]
000000 66 aa 81 3d 6a d5 3c bf 5d 82 a7 3e 65 67 81 3d
       0.06331329 -0.73763144 0.32716647 0.06318549
000010 19 38 a0 3d 14 c4 98 3e 1c bd fb be 8b d2 ee 3d
       0.078232 0.29837096 -0.49167717 0.11661252
000020 52 c5 2d be a3 4d 11 bd ac 15 29 3e 82 9c 3f bd
       -0.16969803 -0.03547443 0.16512173 -0.046780117
000030 2d 7c 92 3d 64 07 cf 3e b7 1d 57 be a0 e9 04 3c
       0.07152591 0.40435326 -0.21007429 0.008112341
000040 19 4f 93 3e e0 23 7a be 2a fd 05 3e eb 4f a5 bb
       0.28771284 -0.24427748 0.13084856 -0.0050449274
000050 95 a5 72 3e 43 ea 49 3e 86 c7 42 be d6 59 9c 3e
       0.23695977 0.1971827 -0.19021425 0.3053729
000060 16 4e 7a bd 67 cb 00 be dc 02 b7 be 11 de ee 3d
       -0.061109625 -0.12577592 -0.3574437 0.116634496
000070 63 d7 a4 be e7 2e 45 3e b8 c4 06 bf 4b ae 8e 3e
       -0.32195577 0.19256173 -0.5264392 0.2786735
000080 bf c4 b6 bc ac ff 89 3f 69 af 1a 3b 39 e1 f1 3d
       -0.022310613 1.078115 0.0023603088 0.11810536
000090 d4 f5 60 3e 3a ac 1e bc 69 95 be 3e 4f 31 a7 3e
       0.21968776 -0.009684617 0.37223366 0.32654807
0000a0 a7 c9 7f 3d c4 a4 45 3c d9 60 cd be 04 8b 35 3e
       0.06244817 0.012063209 -0.4011295 0.17728812
0000b0 5e 32 00 3e a3 7e ce bc b9 d9 1a 3f c1 8a 9c 3e
       0.12519214 -0.02520687 0.6048847 0.3057461
0000c0 e1 a5 54 bc eb 15 95 3c 21 50 9d bd 09 46 d4 3e
       -0.012979002 0.018198928 -0.07681299 0.41459683
0000d0 1e ad 44 3e d2 17 b4 3e 51 bf 3d 3e 38 ae ff 3e
       0.19206664 0.35174423 0.18530013 0.49937606
0000e0 26 ce 84 3e 13 c7 98 be 3a c0 04 3f a1 6a e9 3e
       0.2593853 -0.29839382 0.51855814 0.45589164
0000f0 54 2a 33 3d ce 5f 42 3e 17 47 62 be fd 33 11 be
       0.04374154 0.18981859 -0.22097431 -0.14179988
000100 f4 18 72 bd 55 08 84 be 18 a8 10 bf 48 b4 27 be
       -0.05910583 -0.25787607 -0.5650649 -0.16377366
000110 c1 32 a1 3e 16 77 f1 be 90 29 00 be da 75 03 3e
       0.31484035 -0.47161168 -0.12515855 0.12837926
000120 bf 0d 18 bf e2 19 36 3e 96 a5 5a 3e 4b 20 cb 3d
       -0.59395975 0.17783311 0.21352229 0.09918269
000130 dd 04 1f bb e5 b5 b0 3f 79 43 3b 3f 53 d3 92 bd
       -0.0024264373 1.380551 0.7314983 -0.07169213
000140 46 81 9a bd 8a e2 38 3f c8 3c 67 be 03 98 ac 3e
       -0.07544188 0.7222067 -0.2258178 0.33709726
000150 ee 7a 9b bc e2 5c d5 be cc be c6 3d bf 7e a5 be
       -0.018979516 -0.41672426 0.0970436 -0.32323262
000160 b4 37 a1 3a ef 28 17 3e e3 cb d8 3c b7 a5 f7 3e
       0.0012299926 0.14761709 0.026464408 0.48368618
000170 c1 92 fa bd 11 c9 3e 3d d3 c7 94 3e 24 47 3d 3f
       -0.12235022 0.04657847 0.29058704 0.73936677
000180 25 62 d6 bf 80 b6 4f 3c 09 cc 74 3d 3e dc b7 3c
       -1.6748701 0.012677789 0.059764896 0.022443887
000190 01 6f 71 be ca cb 1f 3f d1 73 40 3f 94 be 92 bc
       -0.23577501 0.6242033 0.7517672 -0.01791314
0001a0 c6 ba a6 be cd fe b0 3e f5 85 e9 bd bd f8 a4 be
       -0.32564372 0.34569398 -0.114025034 -0.32221022
0001b0 e6 52 13 3e 27 03 04 3d e4 f7 4d 3e 19 55 48 3f
       0.14387092 0.03222957 0.20114094 0.7825485
0001c0 96 6d 30 be 4d 25 82 3e ef e5 0d bf 6e 4a 37 3b
       -0.17229304 0.25419083 -0.55428976 0.0027967948
0001d0 cc 32 7a bf fa 76 eb bc e4 4d f6 3e e3 38 90 3d
       -0.9773376 -0.028743256 0.481063 0.070421
0001e0 5c 7c e5 3e b0 86 e3 bd 37 d3 f4 be c7 df c3 be
       0.4482144 -0.11109674 -0.47817394 -0.38256666
0001f0 26 bc 9b bd 1f c7 63 3d 1d 23 dc be 5f 12 46 bd
       -0.07604246 0.05560982 -0.4299554 -0.048357364
000200 47 6e 92 3e 31 ed 9e 3e 1c 55 20 3c 6a db d0 3e
       0.2859976 0.31040338 0.009785917 0.407924
000210 e6 38 d9 bb 5b 42 a3 be e7 40 21 bf 23 22 2c bd
       -0.0066290973 -0.31886563 -0.6298966 -0.042024743
000220 e7 2a 66 bf da b8 57 3d 8c 52 93 3c bc 4c 43 bd
       -0.89909214 0.052666523 0.017983697 -0.0476806
000230 51 d1 c0 3d 34 36 c2 3f ad b0 01 3e 77 36 b0 39
       0.09414924 1.5172791 0.12665053 0.00033609915
000240 6e 03 e0 3c 55 9f 32 3e 68 c8 b4 bc 68 f1 d8 bf
       0.027345385 0.17443593 -0.022068217 -1.6948671
000250 0e e3 81 bd 69 20 1f 3e 25 70 a7 bb e4 2f f1 3d
       -0.06342135 0.15539707 -0.005109804 0.117767125
000260 6e 29 ec 3e 9a 6e 38 3e 1d ec dd bc 53 9d 25 3d
       0.46125358 0.18010941 -0.027090127 0.04043324
000270 84 b2 f3 3e b7 9b 20 3e 44 0e 01 be 9e 7d 90 bf
       0.47597134 0.156844 -0.12603098 -1.1288335
000280 d2 46 f8 3d cc 2b 83 bf f8 fa 28 3e f5 ee b6 be
       0.12122883 -1.0247741 0.16501987 -0.35729185
000290 01 f2 e5 3e b5 13 51 3e 51 9c de be 98 7d 0f be
       0.44911197 0.20417674 -0.43478635 -0.14012754
0002a0 25 f8 0b 3d 6d ad e2 3e 24 9d 4c be 39 97 bf bf
       0.034172196 0.44272938 -0.1998182 -1.4968024
0002b0 6a a0 0a 3d 6d 31 ff 3d 17 08 83 3e 0e 8d 12 c0
       0.03384439 0.12460599 0.2559211 -2.2898593
0002c0 9d 5e cb 3e 39 c9 c4 3f f8 03 1d bb 84 3f 61 bd
       0.39720622 1.5373908 -0.0023958664 -0.054992214
0002d0 f8 9f ec bd 26 83 84 bd ac 2e d0 3e 14 11 06 bd
       -0.11553949 -0.06470327 0.40660608 -0.03273113
0002e0 f6 52 db 3d a6 8e 2f 3e cc 69 bd be c3 40 12 be
       0.10709183 0.1714426 -0.3699478 -0.14282517
0002f0 d9 b1 5a 3e 49 fd 92 3d 77 d1 b1 be 7c c2 17 3f
       0.21356906 0.071772166 -0.34730121 0.59281135
000300 7a a8 81 be be 7e 48 bb 82 e5 b9 3d 62 07 ab bd
       -0.2532385 -0.0030593122 0.09076978 -0.083510175
000310 7a d5 27 3f be 89 be 3f a8 7e 3e 3e b2 7a 9b 3c
       0.65560114 1.4885786 0.18603003 0.018979404
000320 44 f6 ee 3b 05 13 84 3f 09 e7 ab be 2e eb a8 3e
       0.0072925407 1.0318304 -0.33574703 0.32991928
000330 0d a6 db 3d 35 a3 8c be bd 5e 5f 3f f9 1a 11 3f
       0.10725031 -0.27468267 0.87253934 0.5668178
000340 2d 8a 14 3e bc ab ea 3d b1 ae c9 3d b1 80 20 be
       0.14505835 0.11458537 0.09847773 -0.15674092
000350 56 00 a7 bf 20 89 a3 be 6e 36 c1 3e bf e6 02 be
       -1.3046978 -0.31940556 0.3773684 -0.12783335
000360 60 4b b9 3e 97 54 19 be 88 2b 76 bd 04 6a de bc
       0.3619032 -0.14973675 -0.06010011 -0.027150162
000370 ad 24 de 3e 91 f6 a5 bd 7e 7c de bd 04 c7 9b 3d
       0.43387356 -0.081036694 -0.10863589 0.076063186
000380 82 ec a9 3f 55 7f 92 bb 13 49 b4 bd 0e 24 a9 be
       1.3275301 -0.0044707456 -0.08803 -0.3303532
000390 e6 a9 89 bd 2f 4a 85 3d 28 26 a8 bd 12 ab 81 3f
       -0.06721859 0.0650829 -0.08210403 1.0130332
0003a0 c2 f0 aa be f8 3d b0 3e c8 d1 82 3c 3c cb 82 be
       -0.3338681 0.34422278 0.015969172 -0.2554568
0003b0 50 a8 20 3e 0e 50 3b 3f 04 24 77 3d 36 ce da 3e
       0.15689206 0.7316903 0.06033708 0.4273545
0003c0 8b d4 ec 3c 29 0d 30 3d 31 1d 77 bf 83 5d f9 3e
       0.028909942 0.0429813 -0.9652892 0.48704156
0003d0 f4 29 d2 bb 20 ad fa 3d c6 9f 51 3f 0d 7b c4 bd
       -0.0064136926 0.12240052 0.8188442 -0.095937826
0003e0 e1 81 c0 3e aa 28 95 bc f5 1e 1d bd 33 6a a5 be
       0.3759909 -0.018207867 -0.0383596 -0.32307586
0003f0 f4 94 50 bc 39 d5 38 3b 4f c3 a6 bc 49 ee 4e bf
       -0.012730826 0.0028203262 -0.020356802 -0.80832344

body.0.c3_d.bias f4 [22]
000000 7c f0 cc 3e 49 da 70 3d db 6b 69 bf 33 5d 70 3f
       0.40027225 0.058801923 -0.911802 0.9389221
000010 ac 97 13 40 9e 76 d2 3f e4 fa 9e 3f 11 45 ac 3f
       2.3061323 1.6442449 1.2420316 1.3458577
000020 79 e0 bb 3e 91 98 08 bf fb 47 b7 3f 0b ea fc be
       0.36694697 -0.533578 1.4318842 -0.4939731
000030 1b cc cf bb a2 71 02 3f 02 8e 7d 3f b7 df 70 3f
       -0.00634147 0.5095464 0.9904481 0.9409136
000040 00 60 0e 40 1a 2e aa 3f 1a e7 36 be 7c 47 b9 3f
       2.2246094 1.3295319 -0.17861596 1.447494
000050 ca 19 4d 3f 68 19 c9 3e
       0.80117476 0.39277196

body.0.c3_r.norm.weight f4 [45]
000000 68 db 85 bf 5a 95 e7 3e b2 12 23 40 ef 7b c0 3d
       -1.0457582 0.45231134 2.548016 0.093986385
000010 00 00 80 3f 5b 26 94 3f bb c1 7a 3d 8e 5d 69 3f
       1.0 1.1574205 0.061219912 0.9115838
000020 4e 08 49 3f 00 00 80 3f 79 ab dc 3d 5f a3 85 40
       0.78528297 1.0 0.10774893 4.1761928
000030 cd 15 fc bd 43 77 8b 3e 00 00 80 3f 63 de 2d 3f
       -0.12308846 0.27239427 1.0 0.6791746
000040 27 e1 f9 3d 3c 44 3f bd 5b 6d f1 bd 00 00 80 3f
       0.122011475 -0.046695933 -0.11788436 1.0
000050 8c 28 73 3e 33 c7 27 bd 33 9d 26 3e 8d 6d f3 3e
       0.23745936 -0.040961456 0.16270904 0.47544518
000060 00 00 80 3f e4 91 ca 3f d1 cd 77 bd 6d 69 86 3e
       1.0 1.5825772 -0.060499016 0.26252308
000070 b8 1e ae 3f 00 00 80 3f 0b c7 e3 3c e7 39 e6 3d
       1.3603125 1.0 0.027804872 0.11241513
000080 6b ff a0 3f df 5d 14 bb 00 00 80 3f af 65 9e 3e
       1.2577947 -0.002263896 1.0 0.30936953
000090 01 e5 ed 3e 0e 6a 1a bf 21 7c a0 3e 00 00 80 3f
       0.4646378 -0.60318077 0.31344703 1.0
0000a0 d2 3b 73 3e 9b ad b1 3e a8 af b3 be e9 05 5a 3d
       0.23753288 0.34702763 -0.35094953 0.053228293
0000b0 00 00 80 3f
       1.0

body.0.c3_r.norm.bias f4 [45]
000000 d2 22 c2 be e0 bf 5a 3f 58 fb ff bc a3 9f c6 3e
       -0.3791719 0.8544903 -0.03124778 0.38793668
000010 50 c1 29 3e 2e 63 fd bd 0c 46 b9 3e dd c9 2f 3f
       0.16577649 -0.12372433 0.36186254 0.68667394
000020 2b 7b 90 3f 99 6a 34 c0 13 c4 f3 3e 05 ec dc be
       1.1287588 -2.8190062 0.4761053 -0.4314882
000030 89 b0 6c 3f f4 2e 76 3d b9 20 8f 3e f9 1f 06 40
       0.9245687 0.06010337 0.27954653 2.0957015
000040 4a ae a9 3e 1d c1 43 40 6a f1 ca 3d 7a 7b 2d 3f
       0.33140785 3.0586617 0.09909327 0.67766535
000050 64 97 e8 be f8 1f a4 3f 31 c0 d5 3e c5 bf 0a 3f
       -0.45428002 1.2822256 0.41748193 0.5419887
000060 64 7e 09 c0 fa 80 b5 be 6b e9 c2 3f 87 46 ba 3e
       -2.1483393 -0.35449964 1.5227484 0.36381933
000070 2d 85 f5 3e 51 ab 76 3d 0f 6d 67 40 d2 97 bf 3e
       0.47953168 0.060221974 3.6160314 0.37420517
000080 f0 2b 73 bf 8e 41 29 bf 9a 10 b1 bd 78 5f e4 be
       -0.9498892 -0.66115654 -0.086457446 -0.44604087
000090 20 f6 5e 3e 32 09 14 3c b5 8a 13 3f 10 4e 0d 3f
       0.21773577 0.009035395 0.57633525 0.5519724
0000a0 a9 1b 37 bf f5 7f 08 3f 2e 8d 1c 3f b1 65 52 bd
       -0.7152658 0.53320247 0.61152923 -0.05136651
0000b0 8f 4e ea 3f
       1.8305224
